churn_model.pth (torch, 15109 bytes, 5 tensors)

fc1.weight f4 [64, 13]
000000 45 6a 81 3d 8f ac 70 bd 25 a8 bd 3d 8e 33 1d be
       0.063190974 -0.058758315 0.09260587 -0.15351698
000010 02 c6 c0 be 9d 17 3f bd 34 8e 06 be 59 f0 02 3e
       -0.37651068 -0.04665338 -0.13140184 0.12786998
000020 b9 a2 ff bc 09 c3 8a 3b da 7e 76 bb 27 b4 81 3e
       -0.031205522 0.004234676 -0.003761223 0.25332758
000030 92 22 85 be e3 cc 91 be bd 69 1d be a7 79 32 3e
       -0.26002938 -0.2847663 -0.15372367 0.17429219
000040 27 c8 f5 3d 44 bf 3e 3e 13 4c 82 be 46 99 62 be
       0.12001067 0.1862765 -0.25448665 -0.22128782
000050 f7 5f 64 bd c1 c1 57 be 1f 62 8c be 49 f2 1a be
       -0.05575558 -0.21070005 -0.2741861 -0.15131487
000060 19 fb 26 be 6d b6 ea 3d d4 b8 19 bd f8 31 62 3d
       -0.16306724 0.11460576 -0.03752978 0.055223435
000070 25 e3 39 3e a3 cb 32 3e 37 98 a9 be 08 63 19 3d
       0.18153055 0.17460494 -0.33123943 0.03744796
000080 5b d0 38 3e 39 51 94 3e 34 8b 93 be 4a 98 03 be
       0.18048231 0.28968218 -0.2881714 -0.12851062
000090 68 f8 7b 3e 08 0d a2 3d ce 86 9d be 18 64 e1 bd
       0.24606478 0.07912642 -0.3076691 -0.110054195
0000a0 79 1c 5e 3d 86 18 54 be 7c c2 e5 3d a4 b8 7b 3e
       0.054226372 -0.2071248 0.112187356 0.24582154
0000b0 16 47 eb bb b3 a6 21 be 29 ac f5 bc ee a7 64 bd
       -0.007180105 -0.15786247 -0.029989319 -0.055824213
0000c0 d7 d6 10 be 6e 2d 00 bd 0e 35 8c 3e f7 29 3c be
       -0.14144455 -0.031293325 0.27384228 -0.18375383
0000d0 b6 91 66 3d 0a 34 9a be 74 48 88 bd 6c 9a f2 3d
       0.056291305 -0.30117828 -0.06654444 0.1184586
0000e0 74 af 63 bc 9a 05 32 3e 38 a3 18 3e 06 a3 1e 3e
       -0.013896812 0.1738495 0.14906013 0.15491876
0000f0 b4 08 00 be 54 4d 3a be b0 d1 17 3e 88 14 99 3d
       -0.1250332 -0.18193561 0.14826083 0.07474619
000100 3f 47 b0 bc 59 32 4d 3a 08 a6 5f bb ec cf 90 3d
       -0.021518348 0.0007827632 -0.0034126062 0.07070908
000110 19 58 7a 3e 11 95 86 3e b5 89 2c bd a6 01 be bd
       0.24447669 0.26285604 -0.042123515 -0.09277658
000120 c3 68 14 3e b9 70 2c 3e 4f bc 80 3e db e9 3e 3e
       0.14493088 0.16839875 0.25143668 0.18643896
000130 51 8c 8f 3c 29 d3 72 be 9a 77 dd bc 66 25 bd bc
       0.017522963 -0.23713364 -0.02703457 -0.023089122
000140 4a 85 4a bd 43 73 3c bd 60 8d 9c 3e 76 16 a3 3c
       -0.04944352 -0.04600836 0.3057661 0.019908171
000150 6f 32 9b bd a7 fd e9 3d ed 39 5d 3d 6e 9a 92 bd
       -0.07577979 0.114253335 0.05401032 -0.071583614
000160 61 6d 4b be 9b e6 fc 3d 45 81 85 bd 79 5a 9e bd
       -0.19865943 0.12348672 -0.06518797 -0.077321
000170 b3 6d 97 be fe 70 08 3e 28 7d 6e bc 06 3f aa bc
       -0.2957588 0.13324353 -0.014556207 -0.020782005
000180 cd a8 7e 3e 6b 81 ab bd db e4 94 3d 76 b0 94 bd
       0.2486908 -0.08374294 0.07270213 -0.0726022
000190 09 31 ad 3e 93 be 45 be 02 dc 28 3e 2a 97 05 3e
       0.33826473 -0.1931098 0.16490176 0.13045946
0001a0 97 0a 4a bd 27 20 c3 3c 05 58 33 3e 46 22 78 3e
       -0.049326506 0.023819042 0.17514046 0.24231824
0001b0 d7 79 e0 3d ba 5b 31 3d 06 6e 9e be 78 ca 2c 3e
       0.10960739 0.043300368 -0.30943316 0.1687411
0001c0 bc 77 92 3d 72 32 11 3d c9 66 ed 3d 17 b8 99 bd
       0.07151744 0.0354485 0.1159187 -0.075058155
0001d0 06 02 93 3d 66 2a 59 3e 2f e0 85 3e 9e f6 ee 3d
       0.0717812 0.2120758 0.261476 0.11668132
0001e0 d8 d0 a6 3d 87 95 1b 3e 18 4d 43 3e 2a ec 95 3e
       0.081453025 0.15193759 0.19072378 0.2928174
0001f0 d9 c9 b3 3d e5 12 93 bd 6c 67 40 3e 19 2c 03 bd
       0.08778734 -0.07181338 0.18789452 -0.032024477
000200 51 ab 4d 3e f1 0a bf 3d a8 af 96 bd 1e f9 42 3d
       0.20084883 0.09328259 -0.073577225 0.047600858
000210 e1 18 be 3d a8 20 67 3d af f5 a2 3e b0 21 51 3d
       0.09282089 0.056427628 0.31828067 0.051057518
000220 54 bf dd bd 81 7d 22 be 21 f0 9c 3a de ab 9c 3e
       -0.108275086 -0.15868188 0.001197342 0.30599874
000230 3f b1 1d 3e 3f 56 16 be a4 26 00 be 71 d0 f6 3d
       0.15399645 -0.14681338 -0.1251474 0.12051476
000240 6f 09 50 bd 8b 3c 10 3e e2 1b f7 3c 65 cc b1 3e
       -0.050790247 0.14085595 0.030164663 0.34726253
000250 fe 48 38 3c 3a 77 83 be c6 7c 78 3d b6 e0 e0 3d
       0.011247871 -0.256769 0.06066587 0.1098036
000260 1e 54 22 3e 7b 80 27 be fb 09 2b be a6 0d b3 bd
       0.158524 -0.16357605 -0.16703026 -0.087428376
000270 42 83 90 bc 3c 4e 46 3e 91 3e 1d 3e 92 c2 f0 3c
       -0.017640714 0.19365782 0.15355898 0.029389653
000280 be 4b 7f be ce 7f 37 3d a4 43 c6 3d 42 5d d6 3d
       -0.24931237 0.04479962 0.0968087 0.10467006
000290 ea 3e 21 3e 45 ef 6f 3e d6 72 d1 bd 80 21 37 3e
       0.15746656 0.23431118 -0.10226981 0.17883873
0002a0 7a a8 a0 be fe ec d2 3d b0 26 32 3e 5a ad 2d 3e
       -0.31378537 0.10299109 0.1739757 0.1696066
0002b0 1e f1 30 be 83 9d a9 3e 40 8e 06 3d cb da 61 be
       -0.17279479 0.33127984 0.032850504 -0.22056119
0002c0 78 f7 05 3e e1 18 67 3d 79 87 a8 bd 6b 17 d0 3d
       0.13082683 0.05642021 -0.08228964 0.101607166
0002d0 92 0a a3 3e d1 bb aa 3e 7a 15 72 3e 61 85 0d be
       0.31844002 0.33346418 0.23641005 -0.13820411
0002e0 29 75 15 3d 81 35 72 3e a6 a0 33 be 00 fa 28 3e
       0.036488686 0.23653223 -0.17541751 0.16501617
0002f0 6e 78 9f be bd c9 96 3e 9f 7a 1d 3e c3 57 50 be
       -0.31146568 0.2945079 0.15378807 -0.20345978
000300 b8 2c 27 3d 27 70 a1 3e 2a b0 a5 3d db f7 8f bc
       0.04081413 0.31530878 0.08090241 -0.017574241
000310 a6 18 a4 be b9 45 0e 3e 2f f7 79 be 11 51 28 3c
       -0.32050055 0.13893785 -0.244107 0.010273234
000320 8b 0c 1b be 49 06 a0 3e a7 b8 9b 3e e8 1e 66 be
       -0.15141504 0.31254795 0.30414316 -0.22472727
000330 d0 fd 66 be 01 04 56 bd e5 5a c1 3d d7 a2 9e bd
       -0.2255776 -0.052249912 0.09441165 -0.07745903
000340 9a 19 48 3d 03 9c d5 bd b2 ed 8c bd e6 e1 a0 3d
       0.04885254 -0.104301475 -0.06881274 0.07855587
000350 aa 03 6c be ae 3e 3c bd 50 fe 43 be 6c 4b b9 3c
       -0.23048273 -0.045958214 -0.19139981 0.022618972
000360 cb 70 e8 bd 69 21 a2 bd 06 76 e4 bd 9a c5 e8 bd
       -0.113496386 -0.07916529 -0.11155324 -0.113658145
000370 48 55 83 3e f0 af 9c 3d 4f b6 80 be 7c 78 0d be
       0.25651002 0.07650745 -0.2513909 -0.13815492
000380 72 eb 89 3e ba 9b 21 be 40 67 e1 bd 17 14 8c 3e
       0.26937443 -0.15782061 -0.110060215 0.27359077
000390 8a d5 63 be ef f1 8c bd 65 ce 9b bd 15 16 db bc
       -0.22249427 -0.06882083 -0.07607726 -0.026743928
0003a0 79 c2 50 be 4c 2c 2e be 3b 40 4d bd e4 1f 68 be
       -0.20386685 -0.17009085 -0.050110083 -0.22668415
0003b0 85 d7 d4 3d d2 07 4d 3d 8b ee 65 be 46 ce 3f 3d
       0.103926696 0.050056286 -0.22454278 0.046827577
0003c0 61 8c ae 3d f5 ab 2c be 07 10 2b 3e 0e be e9 bd
       0.08522869 -0.16862471 0.16705333 -0.11413203
0003d0 d4 c4 18 3e 97 92 85 be e9 e0 51 3e 94 a5 33 be
       0.14918834 -0.26088402 0.20495953 -0.17543632
0003e0 b7 d0 17 3e d6 3c 3b 3e a8 6c 6d be ae b7 d0 3d
       0.14825712 0.18284926 -0.2318598 0.10191284
0003f0 70 2c a6 3d 98 f3 1c 3e ef 75 33 bc a2 1f 94 3e
       0.081139445 0.15327299 -0.0109534105 0.28930384

fc1.bias f4 [64]
000000 c9 0a 64 3e 5d 5b 43 be ce 47 37 3e a6 88 fe bc
       0.22269739 -0.19077821 0.17898485 -0.031071018
000010 d8 0e 3b 3e f5 76 d5 bd 87 30 2e be 48 94 6d 3e
       0.18267381 -0.1042308 -0.17010699 0.23201096
000020 0f 5d 32 3d 34 ea 06 be 50 51 2e be 21 e8 25 3e
       0.04354578 -0.13175279 -0.17023206 0.16201831
000030 8f 62 a4 3d 30 83 fe 3d ed 86 9e 3e 75 91 36 3d
       0.08026611 0.12427366 0.30962315 0.044572312
000040 85 ca 6c bd 32 f6 2a 3e 5d 75 a1 be 27 e7 1f 3e
       -0.057810325 0.16695479 -0.31534854 0.15615521
000050 33 66 03 be 2a 57 6c 3d f7 7c a6 3b 8f 68 02 3e
       -0.12831955 0.057700314 0.005080815 0.12735198
000060 f6 97 71 3e b2 54 ed bd 62 e0 37 3e bc 12 5a be
       0.23593125 -0.1158842 0.17956689 -0.21296209
000070 2b 26 f5 3d 3a 99 27 be 55 2d 19 3e 00 36 91 3e
       0.119701706 -0.16367045 0.14958699 0.2836151
000080 d8 64 06 3d c4 62 22 3d 79 f3 9e 3e 3f e2 35 3e
       0.032811016 0.03964497 0.3104513 0.17762087
000090 88 cb d1 bd 2d 55 2f 3e 9c 19 42 3e 45 b3 89 3e
       -0.10243899 0.17122336 0.18955082 0.26894584
0000a0 75 94 48 3e 9e 37 fa bd 7f 14 8d 3e b8 c5 dc bd
       0.19587882 -0.122176394 0.275547 -0.10779899
0000b0 b6 ed 8b 3e fe b0 2a 3e 0d fb 25 be f1 9b 62 3e
       0.27329797 0.1666908 -0.1620905 0.221298
0000c0 25 15 b9 3d fd 8e 2a be 59 ee 8c 3e f0 25 09 be
       0.09037236 -0.16656108 0.27525595 -0.13393378
0000d0 b4 36 e2 3c 7a 50 2b be 97 65 20 3e c6 ea 8a 3b
       0.027613975 -0.16729918 0.15663753 0.004239413
0000e0 f9 10 12 be af f0 16 be b1 d8 5d 3e 12 40 65 3e
       -0.14264287 -0.14740251 0.21664692 0.22387722
0000f0 70 3b 05 be ca 42 4f 3e 4d ae 4e 3e 44 bf 79 3d
       -0.13010955 0.20240322 0.20183678 0.06097342

fc2.weight f4 [32, 64]
000000 14 be 7b 3d 05 54 2c 3e 37 9f a3 3d 54 ac 89 bb
       0.06146057 0.16828926 0.07989352 -0.0042014513
000010 3d 42 f8 3c 68 04 01 3e a9 fd 24 3e 19 74 7a bd
       0.030305022 0.12599337 0.16112389 -0.061145876
000020 ea 69 b1 3d 1e b9 b1 3b 69 db e6 3d 38 7c e7 3c
       0.0866278 0.005423679 0.11272318 0.028257474
000030 cf e3 8e 3d 84 66 94 bd 36 b2 dc 39 af f9 9b 3c
       0.06977045 -0.07246116 0.00042094447 0.019039957
000040 81 f5 45 bd 48 6e ce 3c 20 14 4e 3d 31 5a c1 bc
       -0.048329834 0.02519907 0.05031216 -0.023602577
000050 4a a2 8f bc ac 67 7a 3d d4 c6 0d be 34 11 e5 3d
       -0.01753344 0.061134025 -0.13845378 0.11184922
000060 cf e7 24 3c 14 74 3f 3d 5e e9 84 3d 63 54 55 3d
       0.010065033 0.04674156 0.06489824 0.05208243
000070 4c 53 0e 3e 45 64 23 3e aa f6 db bc 31 de b9 bd
       0.13898963 0.15956219 -0.026851017 -0.09075583
000080 29 51 0d be c7 84 79 3c 47 75 1d 3e 6b ee f0 3d
       -0.13800491 0.0152294105 0.15376769 0.117642246
000090 7a f8 39 be f9 6b 7f 3d 2e 89 97 bc 5f 13 97 3d
       -0.18161193 0.06235883 -0.01849803 0.073767416
0000a0 2d 82 16 3e 2c 66 9d bd 52 f4 ee 3d e1 0c 63 bd
       0.14698096 -0.07685503 0.11667694 -0.055432204
0000b0 43 c1 bc bc 95 a6 4f 3c c7 e2 10 3d f4 75 93 bc
       -0.023041373 0.012673994 0.03537252 -0.01800058
0000c0 7a fa 04 bd e5 80 2b 3e 1f 5c 22 3e 43 3b 30 3d
       -0.032465436 0.16748388 0.15855454 0.043025266
0000d0 94 97 17 be 3e db 4b 3e f3 2c 24 3d e8 01 b7 bb
       -0.14803916 0.19907853 0.04008193 -0.005584944
0000e0 f8 51 11 bd 0b de e9 bc c6 05 a3 3d 62 c6 04 bd
       -0.035478562 -0.028548261 0.079600856 -0.032415755
0000f0 bc 4e 9a 3d 0e f1 ba bd 70 a6 f2 3d 65 79 b6 bd
       0.07534549 -0.09128009 0.11848152 -0.08909873
000100 50 88 db bd 56 97 53 3c 8f 12 f4 bc d8 25 0b bd
       -0.10719359 0.012914499 -0.029794006 -0.033971637
000110 85 88 39 3d 6c fc 24 be 47 4a 2a be 69 cf fd 3d
       0.04529621 -0.16111916 -0.16629897 0.12393076
000120 c4 fe c0 3d 20 03 ab bd 5e e3 b4 bd c4 65 c8 bd
       0.09423593 -0.083502054 -0.08832429 -0.09785035
000130 57 a0 0e be 56 f1 07 3e 2f 6e be 3d cc ed 1c 3b
       -0.13928352 0.13275656 0.092983596 0.002394545
000140 4b 37 3e 3d d1 2b d0 3d 11 d3 dd bc 7e 04 38 bd
       0.04643945 0.10164607 -0.027078183 -0.04492616
000150 24 31 72 ba 11 3f 62 3d e0 6a 0e bc ae 52 85 bd
       -0.000923889 0.055235926 -0.008692473 -0.065099105
000160 49 ef 03 3e 25 3d 81 bc cc 81 5b bc 87 ea 24 be
       0.12884249 -0.015776226 -0.013397645 -0.1610509
000170 f2 2c c9 bd c2 a1 28 3d f5 96 b0 3c c6 82 ce 3d
       -0.09823026 0.04116989 0.021556357 0.10083537
000180 81 05 38 bd 35 ab aa bd 75 f0 d9 bd c6 3b db bd
       -0.044927124 -0.083334364 -0.10641567 -0.1070476
000190 68 52 1c bc 97 d7 92 3d 6d f1 8f bb 21 f0 b9 bd
       -0.009541132 0.07170027 -0.004392794 -0.09079004
0001a0 10 0d 00 3e 7f 9f e6 bd 6c 5a 0b bd ed 9d a6 3c
       0.12504983 -0.1126089 -0.03402178 0.020338977
0001b0 8d 2b b7 3d 5c 13 11 3e dd ee cd 3d 72 69 3b 3e
       0.089438535 0.14167541 0.10055325 0.18301943
0001c0 04 39 cb bc b4 e0 55 be 23 e8 b6 3d 08 ae fd bc
       -0.02480746 -0.20886499 0.08930995 -0.030966774
0001d0 27 0c 62 bd ba 89 78 bb a2 70 97 bb ee 2a d0 bd
       -0.05518737 -0.0037923888 -0.004621581 -0.10164438
0001e0 f3 d9 68 3c 15 9b a2 3d e7 01 3e 3e 15 83 a8 bc
       0.014212119 0.07939736 0.18555413 -0.020570317
0001f0 1c f0 1e bc 55 4e bc 3c 37 2f 17 3d 0b 43 60 3d
       -0.009700801 0.02298657 0.036910262 0.054751437
000200 c2 22 6e 3e 11 b1 11 3c d9 e6 42 3e 9e 1c 19 3e
       0.23255447 0.008892314 0.19033374 0.14952323
000210 fc 84 04 be 4d 83 51 3e f5 3b 1e 3d 42 e9 1e bb
       -0.12941355 0.20460244 0.0386314 -0.002424792
000220 e6 da 06 3d e3 9c 24 3d 58 72 04 3e 4c 7f cd 3d
       0.0329236 0.04018868 0.12934244 0.100340456
000230 d2 35 58 bd 36 3b ae bd 12 19 0d bc 5d 5d 21 be
       -0.052785702 -0.08507387 -0.008611934 -0.15758272
000240 4c ee 1a 3d d1 0a d3 bd f7 f3 99 bd 65 3e d9 3d
       0.037824914 -0.103047974 -0.07517236 0.10607604
000250 1f 73 da 3d 10 e0 98 3d 4a 96 c2 3c d3 7f 02 3e
       0.10666489 0.074646115 0.023753304 0.12744074
000260 fb 94 c5 3d 4d f8 2b 3c 4b ae a8 3d 0e e2 14 3e
       0.096475564 0.010496211 0.08236369 0.14539358
000270 42 37 3b bd 43 dc 12 3b 5d db 0f 3e 1e 77 7e bd
       -0.045706995 0.0022409118 0.14048524 -0.062125318
000280 97 23 b9 bd 65 7f 9a 3c 4b d1 ce 3b 4d 8d 1f 3e
       -0.09039991 0.018859575 0.0063115708 0.15581246
000290 92 5e 83 3d 78 a2 c8 bd 80 68 54 3a 46 ec c5 3d
       0.06414522 -0.097966135 0.000810273 0.09664206
0002a0 86 1d 20 3e c4 ed 1b 3e cf db 46 3e 2f 29 dd 3d
       0.15636262 0.15227419 0.19419788 0.10798871
0002b0 cc 38 2f bd 15 73 80 bd 1c c3 93 3c 5a fd e6 bd
       -0.042778775 -0.0627195 0.018037371 -0.11278792
0002c0 11 c2 92 3d a0 6f ff 3d a4 6c b3 bc e3 29 0f be
       0.071659215 0.12472463 -0.02190239 -0.13980822
0002d0 1e dd a8 bd c8 8d c5 3c 3b e6 01 3e 6c aa 12 3e
       -0.082453 0.024115458 0.12685482 0.14322823
0002e0 10 4f fb 3d 60 c2 71 bd 57 54 a9 bc e1 0e 82 3d
       0.12270939 -0.05902326 -0.0206701 0.06350494
0002f0 d2 50 50 3e 5c 56 7e bd ca 2f e7 3d 29 a1 47 3c
       0.2034333 -0.062094077 0.11288412 0.01218442
000300 1c f5 bf bd 7a 19 ae 3d 1d 8e 01 3c 5d 70 2e be
       -0.09372923 0.08500953 0.007907418 -0.1703505
000310 cf bc 9d 3c ec 8d 39 be 9d b9 2a bd d7 ad 46 3e
       0.01925507 -0.18120545 -0.04168092 0.19402252
000320 5d f4 24 ba 8b ec e7 3c 4b 00 2f be 83 7a 23 bd
       -0.00062925165 0.028311035 -0.17089956 -0.03991176
000330 cd 81 8f bc ec ab d8 3c 03 55 01 bd b2 7f 21 3e
       -0.017517949 0.026449166 -0.031575214 0.15771368
000340 a1 93 8a 3c bc d7 dc 3d 90 21 22 bd 42 d7 e6 3d
       0.016916098 0.107833356 -0.03958279 0.11271526
000350 23 b6 9f bd da a4 b4 bd cc bc fc 3d 07 19 bf 3d
       -0.07798412 -0.088205054 0.12340698 0.093309455
000360 6e 52 df 3c c8 b5 08 3e 6a 2e d1 bd ac bf f8 bc
       0.027260985 0.13350594 -0.10213931 -0.030364834
000370 17 d5 81 bd 3d 4a a8 3d bf 90 e3 bc b4 87 ad 3d
       -0.06339472 0.08217285 -0.027778981 0.08473149
000380 f1 02 3d 3c b2 d5 9a 3d de d5 0e bc 15 af 1f be
       0.011536346 0.075602904 -0.008717982 -0.15594132
000390 32 0f 3e 3e 61 d2 44 3d 52 6b 6a bc 96 37 15 be
       0.18560484 0.048052195 -0.014307814 -0.14571986
0003a0 38 2c 96 bb e9 9a 80 3d 6f b7 a4 3d 4e 35 a4 bb
       -0.004582908 0.06279547 0.080428 -0.005011237
0003b0 f1 1d 3d 3d 4b 54 18 3e 16 67 04 3e 38 9a 4a 3a
       0.046171132 0.14875905 0.12929949 0.0007728669
0003c0 2a 07 2f be 00 1e 13 3d a6 6e ca bc 3e f1 e8 3d
       -0.17092577 0.035917282 -0.024710964 0.11374138
0003d0 0a a2 90 3d f5 fe 2a bb e0 13 05 3d 5f 77 cb bd
       0.070621565 -0.0026091908 0.032489657 -0.099348776
0003e0 97 24 23 be 78 a2 92 3d ca 2f 1c 3e 6a 00 23 bd
       -0.15931927 0.07159895 0.15252605 -0.039795317
0003f0 59 6d 84 3c 2c a4 09 3e 52 22 f4 bd 91 63 35 3e
       0.016165422 0.13441533 -0.119206086 0.17713763

fc2.bias f4 [32]
000000 4d a1 d2 3c 7d bf 12 bd 76 92 29 3c b8 4d af 3d
       0.02571168 -0.03582715 0.01034986 0.085597456
000010 ca e9 f6 bd 7a b8 83 3d 5f 94 a0 3d 12 fe 19 3c
       -0.120563105 0.064316705 0.078407995 0.009398954
000020 66 1b 0c 3d 47 f1 e5 bb 63 ee c8 3c 4f 5d 63 bd
       0.034205817 -0.007017288 0.024527734 -0.055508908
000030 98 e6 fe 3c ce 3a 07 3e 10 a2 17 bc 7c eb a0 3d
       0.031115815 0.13206026 -0.009254947 0.07857415
000040 47 3a 10 3e ac 02 23 3d 8f a4 78 3d fe 16 8a 3d
       0.14084731 0.03979747 0.06070381 0.06742667
000050 3e 97 ea bc 97 06 31 3c b5 3d 01 3d a7 ae d5 bd
       -0.028636571 0.010804794 0.03155299 -0.10433703
000060 99 66 d9 3a 38 69 21 3e 75 51 21 3e ca 3e 3c 3d
       0.0016586363 0.15762794 0.1575373 0.045958318
000070 db a8 a9 3c 99 bf 76 3d 5a 58 38 3c 13 36 02 3e
       0.0207104 0.060241316 0.011251533 0.1271594

fc3.weight f4 [1, 32]
000000 78 1b 2c 3e 05 51 77 be 55 9d ac 3d 2f 6d 62 be
       0.16807353 -0.24152 0.08428446 -0.22111963
000010 d8 19 2d 3e e5 18 80 3e 4f c5 35 3e a6 89 5e 3e
       0.1690439 0.25018993 0.17751049 0.21732196
000020 77 8f 72 be 30 cf 2b be e0 b7 20 be 29 df f8 bc
       -0.2368754 -0.16778255 -0.15695143 -0.030379849
000030 8a 15 9f 3d bb 7d 1a 3e 11 37 2b be 78 8f c9 bd
       0.0776778 0.15087025 -0.16720225 -0.098418176
000040 26 aa 8b 3e 35 d6 07 be fd db 2c be 2e e0 41 bd
       0.2727825 -0.13265307 -0.16880794 -0.047332935
000050 92 96 c7 bd fd e3 62 3e ee c1 1f be 76 9e a4 bd
       -0.09745516 0.22157283 -0.15601322 -0.080380365
000060 50 38 08 3e 95 5c d2 bd fe 81 48 3e 03 d0 2b be
       0.13302732 -0.10271565 0.19580838 -0.16778569
000070 87 e2 6d 3e 5a c2 3d be 8f d6 0a 3e 2b 6b ec 3d
       0.23230945 -0.1853117 0.1355841 0.11543878
